…
  - test for ele: (202, 461) (202, 2) (202, 4)
  - test for kit: (202, 461) (202, 2) (202, 4)
loading word embeddings from glove
loading glove from /home/akashdeep/datasets/glove/glove.6B.300d.txt
glove info: 35108 words, 300 dims
processing embedding matrix

building the model
Invalid bias shape: (900,)
__________________________________________________________________________________________________
Layer (type)                    Output Shape         Param #     Connected to                     
==================================================================================================
input_1 (InputLayer)            (None, 461)          0                                            
__________________________________________________________________________________________________
embedding_1 (Embedding)         (None, 461, 300)     13676700    input_1[0][0]                    
__________________________________________________________________________________________________
spatial_dropout1d_1 (SpatialDro (None, 461, 300)     0           embedding_1[0][0]                
__________________________________________________________________________________________________
bidirectional_1 (Bidirectional) (None, 600)          1442400     spatial_dropout1d_1[0][0]        
__________________________________________________________________________________________________
bidirectional_2 (Bidirectional) (None, 461, 600)     1442400     spatial_dropout1d_1[0][0]        
__________________________________________________________________________________________________
dense_1 (Dense)                 (None, 100)          60100       bidirectional_1[0][0]            
__________________________________________________________________________________________________
time_distributed_1 (TimeDistrib (None, 461, 100)     60100       bidirectional_2[0][0]            
__________________________________________________________________________________________________
dropout_1 (Dropout)             (None, 100)          0           dense_1[0][0]                    
__________________________________________________________________________________________________
dot_1 (Dot)                     (None, 461)          0           time_distributed_1[0][0]         
                                                                 dropout_1[0][0]                  
__________________________________________________________________________________________________
activation_1 (Activation)       (None, 461)          0           dot_1[0][0]                      
__________________________________________________________________________________________________
dot_2 (Dot)                     (None, 600)          0           bidirectional_2[0][0]            
                                                                 activation_1[0][0]               
__________________________________________________________________________________________________
dense_3 (Dense)                 (None, 100)          60100       dot_2[0][0]                      
__________________________________________________________________________________________________
dropout_2 (Dropout)             (None, 100)          0           dense_3[0][0]                    
__________________________________________________________________________________________________
s_pred (Dense)                  (None, 2)            202         dropout_2[0][0]                  
__________________________________________________________________________________________________
d_pred (Dense)                  (None, 4)            404         dropout_1[0][0]                  
==================================================================================================
Total params: 16,742,406
Trainable params: 16,742,406
Non-trainable params: 0
__________________________________________________________________________________________________

training model
Train on 5600 samples, validate on 1592 samples
Epoch 1/100
 - 169s - loss: 0.7410 - s_pred_loss: 0.6869 - d_pred_loss: 1.3524 - s_pred_acc: 0.5466 - d_pred_acc: 0.3329 - val_loss: 0.7143 - val_s_pred_loss: 0.6625 - val_d_pred_loss: 1.2956 - val_s_pred_acc: 0.6055 - val_d_pred_acc: 0.4761
…
