…
loading glove from /home/akashdeep/datasets/glove/glove.6B.300d.txt
glove info: 35108 words, 300 dims
processing embedding matrix

building the model
Unable to open file (unable to open file: name = 'saved_weights_m6.hdf5', errno = 2, error message = 'No such file or directory', flags = 0, o_flags = 0)
__________________________________________________________________________________________________
Layer (type)                    Output Shape         Param #     Connected to                     
==================================================================================================
input_1 (InputLayer)            (None, 461)          0                                            
__________________________________________________________________________________________________
embedding_1 (Embedding)         (None, 461, 300)     13676700    input_1[0][0]                    
__________________________________________________________________________________________________
spatial_dropout1d_1 (SpatialDro (None, 461, 300)     0           embedding_1[0][0]                
__________________________________________________________________________________________________
bidirectional_1 (Bidirectional) (None, 600)          1081800     spatial_dropout1d_1[0][0]        
__________________________________________________________________________________________________
bidirectional_2 (Bidirectional) (None, 461, 600)     1081800     spatial_dropout1d_1[0][0]        
__________________________________________________________________________________________________
dense_1 (Dense)                 (None, 100)          60100       bidirectional_1[0][0]            
__________________________________________________________________________________________________
time_distributed_1 (TimeDistrib (None, 461, 100)     60100       bidirectional_2[0][0]            
__________________________________________________________________________________________________
dropout_1 (Dropout)             (None, 100)          0           dense_1[0][0]                    
__________________________________________________________________________________________________
dot_1 (Dot)                     (None, 461)          0           time_distributed_1[0][0]         
                                                                 dropout_1[0][0]                  
__________________________________________________________________________________________________
activation_1 (Activation)       (None, 461)          0           dot_1[0][0]                      
__________________________________________________________________________________________________
dot_2 (Dot)                     (None, 600)          0           bidirectional_2[0][0]            
                                                                 activation_1[0][0]               
__________________________________________________________________________________________________
dense_3 (Dense)                 (None, 100)          60100       dot_2[0][0]                      
__________________________________________________________________________________________________
dropout_2 (Dropout)             (None, 100)          0           dense_3[0][0]                    
__________________________________________________________________________________________________
s_pred (Dense)                  (None, 2)            202         dropout_2[0][0]                  
__________________________________________________________________________________________________
d_pred (Dense)                  (None, 4)            404         dropout_1[0][0]                  
==================================================================================================
Total params: 16,021,206
Trainable params: 16,021,206
Non-trainable params: 0
__________________________________________________________________________________________________

training model
Train on 5600 samples, validate on 1592 samples
Epoch 1/100
 - 131s - loss: 0.7460 - s_pred_loss: 0.6913 - d_pred_loss: 1.3676 - s_pred_acc: 0.5336 - d_pred_acc: 0.3130 - val_loss: 0.7333 - val_s_pred_loss: 0.6804 - val_d_pred_loss: 1.3217 - val_s_pred_acc: 0.5810 - val_d_pred_acc: 0.3964
…
